assessment/data.pth (torch, 81009 bytes, 6 tensors)

l1.weight f4 [8, 1556]
-0.004899964 4.2662206 0.98494154 0.40444887 0.7060744 -0.06834645 1.5362955 -2.0483952
-0.08659679 1.6301187 -0.2677709 1.5745447 -0.7677247 0.49146616 0.5132879 -0.08975796
-1.5889539 1.2726867 1.333615 -0.9475669 1.081428 -0.23852085 1.149326 3.6949003
0.27758896 0.48116964 -0.23230833 -0.23590975 2.8886638 3.2366345 -0.60106194 -0.08315924
-0.51200384 -1.854965 -0.26663804 3.2672663 -0.42639542 2.5954528 2.7041736 -1.149528
-0.7393661 2.463104 4.6385155 -0.15907498 0.6169088 1.1376964 0.1886282 1.6594678
3.6692007 1.7388543 1.8284962 -0.12495065 -0.46574074 0.74379635 -2.4129012 -0.63581455
1.148434 -0.15657042 5.630203 2.9971228 4.78674 3.3112533 -0.5086001 -0.24281639
-0.892344 0.12869023 0.69285005 3.5789664 1.9078372 0.31885767 0.82610667 1.001557
-0.31518054 0.1685287 -0.54864854 -0.7938007 0.48550138 2.0957987 3.817751 2.4139028
2.0297754 1.3192855 -1.826849 0.860327 0.15269797 -1.5853671 -0.39275154 1.138617
-0.24739623 0.018420001 -1.1993916 -0.6509717 3.0614958 -0.495955 0.43594307 0.79065436
0.7139277 4.9807673 1.775355 -0.21738805 -0.04399402 -0.3345571 0.26766622 -0.8824289
4.152353 2.9270031 -0.6810071 -0.26557752 4.5460405 -0.54147315 -0.3820915 -0.3862041
0.34981486 2.122388 -0.20391569 1.9227984 0.008963502 -0.24389373 -0.05486471 2.3313792
-0.19713335 2.3963742 1.8185817 2.6897862 -0.63186175 1.4141642 -0.05116383 0.93847185
2.3647153 1.3347156 1.0754259 0.26810116 -0.34362406 1.1799326 -0.5670868 2.5882516
0.26014632 0.6595285 0.47528678 1.1550094 0.03677654 -0.96597695 -0.012172112 0.29136515
1.0964514 -0.1426857 -1.1551306 0.8531231 1.4302616 1.107052 4.1715755 0.12700576
4.0188694 0.7653998 0.75080734 -0.22253697 2.4643435 -0.30009273 4.194251 0.41853657
-0.1042003 0.7396615 -0.64094156 -0.08009053 4.5838723 0.652725 -0.43611947 -0.11357297
0.48190257 -0.05750678 -0.04926914 -1.6648909 1.3074942 0.12939009 1.4734563 0.6191534
-0.08625097 1.8394196 0.16289054 -0.08864095 -0.092607 -1.2239447 0.2042462 3.6891809
-0.7725553 3.6602292 5.1994586 0.6918195 -0.21040782 0.30388522 -0.19382197 0.04568301
-0.12003779 0.44092643 1.9609978 2.308243 -0.9560416 -0.2681653 -0.11499852 1.1060648
-0.32913512 2.021929 -0.8737123 1.4978166 0.5985665 2.7836466 -0.18909995 2.4912171
-0.8187011 -0.04556119 0.29937947 1.1737727 1.7394296 1.157474 0.6753479 2.0991247
-0.7956889 1.2272106 1.763223 0.38362634 4.6516933 1.2675116 3.3369918 5.08416
-4.691738 -0.920678 -0.8092488 3.0550718 -0.5318226 5.6921935 -0.013613104 -0.43758208
0.8364538 1.4973125 -0.19225945 1.0076848 0.5164369 0.67017794 1.9093362 0.29529873
-2.010137 0.54880434 0.38005632 0.6276343 1.5957336 -0.47073168 0.31496173 1.86875
0.72434497 2.34613 -1.5461936 -0.3211249 -1.1153674 -1.0173949 0.7925494 0.6394824
00000000: e18f a0bb e184 8840 2125 7c3f ec13 cf3e
00000010: 4bc1 343f 39f9 8bbd 55a5 c43f e818 03c0
00000020: a859 b1bd bba7 d03f 4419 89be ae8a c93f
00000030: 9b89 44bf 74a1 fb3e d666 033f 05d3 b7bd
00000040: d762 cbbf 66e7 a23f e5b3 aa3f bf93 72bf
00000050: 3c6c 8a3f cf3e 74be 1d1d 933f 3f79 6c40
00000060: 2420 8e3e de5b f63e 3ce2 6dbe 5392 71be
00000070: dedf 3840 0525 4f40 32df 19bf 644f aabd
00000080: af12 03bf 7e6f edbf c884 88be e41a 5140
00000090: 8050 dabe e61b 2640 2e11 2d40 bc23 93bf
000000a0: 1947 3dbf 7fa3 1d40 b86e 9440 8de4 22be
000000b0: bced 1d3f 09a0 913f c027 413e 7169 d43f
000000c0: 2fd4 6a40 c792 de3f 2a0c ea3f 20e6 ffbd
000000d0: 9275 eebe 7069 3e3f f96c 1ac0 bec4 22bf
000000e0: e3ff 923f ff53 20be 9f2a b440 dcd0 3f40
000000f0: f92c 9940 93eb 5340 9e33 02bf dca4 78be
00000100: a870 64bf 5fc7 033e 9f5e 313f c90d 6540
00000110: 0234 f43f 5041 a33e ba7b 533f 0533 803f
00000120: 585f a1be ca92 2c3e 3b74 0cbf 8636 4bbf
00000130: a393 f83e 9121 0640 0856 7440 627d 1a40
00000140: d7e7 0140 59de a83f 30d6 e9bf 643e 5c3f
00000150: db5c 1c3e 4fed cabf bb16 c9be 34be 913f
00000160: 7055 7dbe 8be5 963c aa85 99bf 15a6 26bf
00000170: 8cef 4340 d0ed fdbe ee33 df3e 5368 4a3f
00000180: f7c3 363f 7262 9f40 d53e e33f f99a 5ebe
00000190: 1333 34bd 114b abbe 8c0b 893e dce6 61bf
000001a0: 13e0 8440 0554 3b40 7b56 2ebf c7f9 87be
000001b0: 2a79 9140 fc9d 0abf 7fa1 c3be 8bbc c5be
000001c0: ef1a b33e 34d5 0740 46cf 50be 421e f63f
000001d0: a7db 123c 47bf 79be d1b9 60bd 5135 1540
000001e0: 53dd 49be 325e 1940 49c7 e83f 7525 2c40
000001f0: b1c1 21bf 5503 b53f 2a91 51bd b13f 703f
00000200: 7f57 1740 f6d7 aa3f 8ea7 893f 8e44 893e
00000210: 7eef afbe 0808 973f 9a2c 11bf eaa5 2540
00000220: e631 853e dcd6 283f ca58 f33e 59d7 933f
00000230: ffa2 163d 444a 77bf 8a6d 47bc d02d 953e
00000240: 8558 8c3f 331c 12be 52db 93bf 4766 5a3f
00000250: d012 b73f e1b3 8d3f 8c7d 8540 cc0d 023e
00000260: 949a 8040 3ef1 433f e934 403f bbe0 63be
00000270: ceb7 1d40 c1a5 99be 4e37 8640 6d4a d63e
00000280: f866 d5bd 755a 3d3f bf14 24bf 8106 a4bd
00000290: 15af 9240 fc18 273f 0d4b dfbe f298 e8bd
000002a0: efbb f63e 3b8c 6bbd 70ce 49bd 251b d5bf
000002b0: f85b a73f d67e 043e 379a bc3f d680 1e3f
000002c0: 59a4 b0bd 1a72 eb3f c7cc 263e 6389 b5bd
000002d0: bda8 bdbd 38aa 9cbf ea25 513e 8a1b 6c40
000002e0: 2fc6 45bf 3241 6a40 f761 a640 151b 313f
000002f0: 2675 57be d896 9b3e 4479 46be 1c1e 3b3d
00000300: 5fd6 f5bd 1cc1 e13e fa01 fb3f 41ba 1340
00000310: 24bf 74bf f64c 89be 5884 ebbd 8893 8d3f
00000320: 6684 a8be 4967 0140 9cab 5fbf 74b8 bf3f
00000330: a73b 193f 4427 3240 6ba3 41be 1a70 1f40
00000340: 6596 51bf 5f9e 3abd 4448 993e 2f3e 963f
00000350: a1a5 de3f 1c28 943f 9ae3 2c3f 0f58 0640
00000360: 45b2 4bbf 3d15 9d3f 4bb1 e13f ac6a c43e
00000370: acda 9440 d23d a23f 4691 5540 70b1 a240
00000380: b822 96c0 8eb1 6bbf ee2a 4fbf 4c86 4340
00000390: 8725 08bf 7326 b640 7f09 5fbc c20a e0be
000003a0: d621 563f f0a7 bf3f a9df 44be d1fb 803f
000003b0: 3535 043f c890 2b3f 2165 f43f 6531 973e
000003c0: 16a6 00c0 717e 0c3f be96 c23e a4ac 203f
000003d0: 0041 cc3f be03 f1be aa42 a13e 3333 ef3f
000003e0: ac6e 393f fe26 1640 ace9 c5bf 7c6a a4be
000003f0: 5cc4 8ebf ff39 82bf 84e4 4a3f 1eb5 233f

l1.bias f4 [8]
0.5928574 0.39298004 0.24581368 0.40643668 -0.16057934 -0.97480047 0.3344125 0.40687186
00000000: 81c5 173f ae34 c93e 95b6 7b3e 7818 d03e
00000010: e96e 24be 868c 79bf 1d38 ab3e 8251 d03e

l2.weight f4 [8, 8]
1.364262 1.6237636 -1.8274853 0.16370949 2.9743595 -1.0959091 0.20946921 -0.62545496
0.7954053 -1.8724545 2.655171 1.3498622 0.35059676 -0.7845118 0.8030989 -1.4938005
1.0736384 0.48792532 -0.6819491 1.9176937 -2.3220937 -2.4338176 0.53207844 0.14609258
-0.42029914 1.3852775 0.6504235 1.3147868 0.111684814 1.39176 -1.057071 0.84619963
0.06469022 1.5648532 0.39594173 -0.45174038 -1.8789498 -0.9968088 2.1863725 -0.4828471
1.3875366 1.4583777 0.15310399 -0.5561461 0.8139513 2.1208308 -0.24900761 -1.8401954
1.4804678 -1.3739035 -0.35855624 -0.16615683 -2.1628304 1.7477161 2.1837466 1.8904707
-1.1133897 0.4327495 0.12559399 1.4266049 -0.031703666 2.2456229 2.4574027 -1.9595606
00000000: 23a0 ae3f 7cd7 cf3f 0aeb e9bf 76a3 273e
00000010: e85b 3e40 c046 8cbf 197f 563e d11d 20bf
00000020: af9f 4b3f 97ac efbf 52ee 2940 49c8 ac3f
00000030: 6b81 b33e c4d5 48bf e497 4d3f db34 bfbf
00000040: fc6c 893f 59d1 f93e 3794 2ebf fd76 f53f
00000050: 2f9d 14c0 abc3 1bc0 4b36 083f 4b99 153e
00000060: 7331 d7be c650 b13f 2882 263f ef4a a83f
00000070: 02bb e43d 3125 b23f 1a4e 87bf 8aa0 583f
00000080: 4e7c 843d 1c4d c83f e0b8 ca3e 844a e7be
00000090: 6d81 f0bf dd2e 7fbf 87ed 0b40 bc37 f7be
000000a0: cd9a b13f 1fac ba3f 4bc7 1c3e 975f 0ebf
000000b0: 1d5f 503f b1bb 0740 dafb 7ebe 868b ebbf
000000c0: f87f bd3f 12dc afbf af94 b7be 0425 2abe
000000d0: d06b 0ac0 29b5 df3f 81c2 0b40 f2fa f13f
000000e0: 8e83 8ebf 5891 dd3e b69b 003e fd9a b63f
000000f0: b4db 01bd 49b8 0f40 1646 1d40 e2d2 fabf

l2.bias f4 [8]
0.19870864 -0.35051095 1.0440701 -0.75238305 -0.4355254 -0.26472318 -0.7656489 0.7205567
00000000: 477a 4b3e 2c76 b3be 17a4 853f 2d9c 40bf
00000010: 2ffd debe cc89 87be 9101 44bf 6776 383f

l3.weight f4 [80, 8]
0.46241316 -1.3357798 0.012602887 -1.5377357 -5.9074225 -0.43424422 -1.4441307 -19.863829
-13.658212 -13.690129 1.0353175 0.77021646 0.54344773 -11.722787 -6.2061553 -3.4580853
-2.3526704 -2.5657148 -12.592738 0.2614925 0.3065514 0.43724433 -3.4224343 0.8744505
-0.0391468 -10.746867 -1.473605 -0.0039033273 -3.0545893 -0.8190842 -1.2337081 -0.4741317
0.66431344 -1.2670753 0.9225218 -1.4861971 -0.06561831 -3.3931875 -9.479896 0.059809957
0.4816965 -1.183863 0.16849297 -0.8074452 -11.517875 -0.5808576 -21.44829 -18.415508
-7.618488 1.6204998 1.779283 -4.486191 -2.1740465 -10.404275 -1.0752927 -1.3740265
0.15816663 -1.938168 0.11716374 -20.93655 0.23444363 -5.533042 -0.1746516 0.8995017
-1.3408704 -0.28973383 -2.970869 -2.9633532 1.2529668 -0.5217367 -4.1730433 0.9791567
-1.1257478 0.8149849 -0.3761886 0.8582714 -7.1474414 -4.095697 -14.870844 -1.4973056
-8.037969 -25.87902 -0.2460138 -0.8602683 -0.66818553 -1.7777287 0.7742361 -0.029969927
2.1693118 -19.495625 -17.063213 -2.9585953 -19.10762 -7.7564025 -2.9863508 -3.3294353
0.044446085 1.8544304 -21.235321 -13.134104 -6.02211 -16.753668 -1.7350006 1.1853321
0.54112804 2.1656404 -10.842164 -3.411316 -7.597192 -7.3421216 -7.265327 -1.0031047
-4.7925467 -8.467993 -1.8067101 -0.5347592 -9.33195 -9.146406 1.5888869 -8.129674
-0.43399134 -3.0103579 -12.458598 -1.2965078 -11.62708 -3.6077 -0.54010713 0.22111814
-0.1628186 -1.3270488 -20.54363 0.33389083 -11.6515665 -17.05239 -2.4180965 0.11266136
-1.9325688 1.3714023 1.3791108 -12.308116 -15.640009 -2.5493424 -2.0859609 0.98674726
0.11358231 -10.476039 -14.7224865 -0.91931427 -10.7376 -2.796044 -0.20179553 -0.97941184
1.175741 -0.115796424 -10.580198 -0.28424573 -6.432417 -12.324327 -7.9286814 -11.115882
0.17367247 -4.8430033 -14.752623 -0.098385416 -6.1162853 -11.715708 -0.46559954 -1.6727641
-3.4080038 -11.908984 -0.24167918 -2.3133607 -1.5251857 2.3860056 -0.72541004 -11.336479
-1.5073804 -8.441532 -9.59178 -3.08807 -11.698657 1.3158214 -0.5845225 -0.4589861
-3.0510874 -11.939719 -1.8257053 -1.6731992 1.680152 0.18500754 -7.122967 0.86193824
-4.5487 -1.1700544 -5.398403 -10.252861 -1.111556 1.1015033 1.0972916 -3.2789052
-1.52224 1.2746425 -16.763884 -15.056712 -8.423204 0.3544003 -1.2122028 0.44310248
0.2406906 1.3969369 -5.095501 -2.7259514 -5.501698 -3.1910946 -8.045156 -4.5609584
-1.5470372 -6.4753714 -8.084272 -3.8234181 0.85317826 1.5119836 -2.1533296 -1.4520032
-1.3750625 0.6056291 -11.383964 -18.698172 -9.494544 2.0432029 0.86194134 -1.4404696
-0.53996843 0.18883282 -14.652587 -15.496437 -8.953028 0.3997842 -9.501584 0.76764476
0.78905255 1.2389156 -20.653942 -11.238875 -17.282036 -4.568105 -12.791688 0.607429
-3.30429 -0.7674353 -13.447538 -5.9710383 -13.2073965 1.8856478 0.26423654 0.15590025
00000000: 6bc1 ec3e d5fa aabf 577c 4e3c 86d4 c4bf
00000010: 9b09 bdc0 4255 debe 46d9 b8bf 1fe9 9ec1
00000020: 0988 5ac1 c50a 5bc1 4985 843f e82c 453f
00000030: 641f 0b3f 8990 3bc1 d398 c6c0 4551 5dc0
00000040: 2792 16c0 ac34 24c0 db7b 49c1 58e2 853e
00000050: 4ef4 9c3e 7dde df3e 2a09 5bc0 fddb 5f3f
00000060: 6558 20bd 2bf3 2bc1 179f bcbf f7ce 7fbb
00000070: 647e 43c0 81af 51bf 26ea 9dbf 64c1 f2be
00000080: 7210 2a3f 862f a2bf 642a 6c3f b53b bebf
00000090: e462 86bd fc29 59c0 a7ad 17c1 49fb 743d
000000a0: eca0 f63e d388 97bf 6c89 2c3e bbb4 4ebf
000000b0: 3749 38c1 15b3 14bf 1996 abc1 f652 93c1
000000c0: a7ca f3c0 8a6c cf3f 8cbf e33f e08e 8fc0
000000d0: 9423 0bc0 e977 26c1 31a3 89bf 1ae0 afbf
000000e0: 6ff6 213e e415 f8bf 8bf3 ef3d 0e7e a7c1
000000f0: fe11 703e ae0e b1c0 ded7 32be be45 663f
00000100: a4a1 abbf fe57 94be b822 3ec0 94a7 3dc0
00000110: 3761 a03f 8990 05bf 9289 85c0 03aa 7a3f
00000120: 8118 90bf daa2 503f cb9b c0be adb7 5b3f
00000130: d7b7 e4c0 f30f 83c0 faee 6dc1 b6a7 bfbf
00000140: 859b 00c1 3c08 cfc1 0beb 7bbe 8b3a 5cbf
00000150: 350e 2bbf 9d8c e3bf 5634 463f 7e83 f5bc
00000160: 01d6 0a40 0af7 9bc1 7681 88c1 a059 3dc0
00000170: 68dc 98c1 7334 f8c0 5f20 3fc0 7815 55c0
00000180: 190d 363d fa5d ed3f f0e1 a9c1 4a25 52c1
00000190: 20b5 c0c0 8307 86c1 8014 debf f6b8 973f
000001a0: 5e87 0a3f da99 0a40 8179 2dc1 0053 5ac0
000001b0: 321c f3c0 a9f2 eac0 8f7d e8c0 bc65 80bf
000001c0: 8b5c 99c0 e67c 07c1 4742 e7bf fbe5 08bf
000001d0: ab4f 15c1 ae57 12c1 a560 cb3f 2513 02c1
000001e0: 1d34 debe b4a9 40c0 6b56 47c1 f8f3 a5bf
000001f0: 8508 3ac1 8fe4 66c0 7644 0abf cb6c 623e
00000200: ebb9 26be bcdc a9bf 5b59 a4c1 bdf3 aa3e
00000210: d16c 3ac1 4b6b 88c1 18c2 1ac0 00bb e63d
00000220: 6a5e f7bf 1c8a af3f b486 b03f 0bee 44c1
00000230: 7a3d 7ac1 6d28 23c0 6280 05c0 789b 7c3f
00000240: d89d e83d db9d 27c1 4e8f 6bc1 2e58 6bbf
00000250: 36cd 2bc1 63f2 32c0 7da3 4ebe bcba 7abf
00000260: ae7e 963f ad26 edbd 7e48 29c1 a888 91be
00000270: 5cd6 cdc0 7230 45c1 c2b7 fdc0 a7da 31c1
00000280: 32d7 313e e2f9 9ac0 be0a 6cc1 4b7e c9bd
00000290: 9cb8 c3c0 8a73 3bc1 1063 eebe 221d d6bf
000002a0: bc1c 5ac0 338b 3ec1 bf7a 77be 1a0e 14c0
000002b0: 4939 c3bf 51b4 1840 79b4 39bf 3862 35c1
000002c0: d7f1 c0bf 8410 07c1 ee77 19c1 f0a2 45c0
000002d0: b32d 3bc1 d66c a83f 44a3 15bf 3a00 ebbe
000002e0: 0445 43c0 1709 3fc1 b6b0 e9bf 642b d6bf
000002f0: 390f d73f 9e72 3d3e 58ef e3c0 fca7 5c3f
00000300: f38e 91c0 58c4 95bf b8bf acc0 b80b 24c1
00000310: 7847 8ebf 0ffe 8c3f 0d74 8c3f 95d9 51c0
00000320: c3d8 c2bf 7c27 a33f 6f1c 86c1 4be8 70c1
00000330: 72c5 06c1 f573 b53e 7629 9bbf 54de e23e
00000340: 9977 763e d4ce b23f 580e a3c0 fd75 2ec0
00000350: e90d b0c0 e53a 4cc0 f5b8 00c1 5ff3 91c0
00000360: 5105 c6bf 3e36 cfc0 2e59 01c1 e2b2 74c0
00000370: e469 5a3f ae88 c13f 27d0 09c0 3edb b9bf
00000380: 0c02 b0bf 820a 1b3f b724 36c1 db95 95c1
00000390: a7e9 17c1 d6c3 0240 30a8 5c3f 4f61 b8bf
000003a0: 5f3b 0abf 645d 413e ff70 6ac1 68f1 77c1
000003b0: 9a3f 0fc1 84b0 cc3e 7d06 18c1 5e84 443f
000003c0: 59ff 493f c994 9e3f 463b a5c1 6fd2 33c1
000003d0: 9c41 8ac1 eb2d 92c0 c1aa 4cc1 7880 1b3f
000003e0: 7d79 53c0 a476 44bf 1e29 57c1 bf12 bfc0
000003f0: 7f51 53c1 e85c f13f 034a 873e 51a4 1f3e

l3.bias f4 [80]
0.8685823 5.0268297 -6.2379885 -11.5419855 0.46963176 0.4316796 -12.052262 1.0321058
-5.672324 -5.2569838 0.74598163 0.4123184 -8.3740015 -8.324703 -5.1910233 -8.318574
-4.9360185 -11.295654 -5.997089 0.8224024 -3.2891195 -2.8332298 -6.5304003 -6.6745467
-6.7852426 -7.165614 -5.976677 -8.371362 -6.161612 -8.664007 -7.618173 -5.4482665
-5.3279543 -0.2589092 -4.02529 -2.2458608 -2.4926226 -10.114368 -5.52206 -3.4005666
-6.2658205 -2.3718135 -6.0837317 0.61641103 0.30788955 -2.0784738 -6.856175 -2.6376286
0.829807 -8.8458 -0.63755625 -0.95935047 -5.779311 -5.010458 -0.21951695 -6.8174872
-9.430726 -7.0146413 1.0701922 -0.92683625 0.84898204 0.38652688 -5.031078 -10.00374
-14.682367 -0.48767638 -3.453175 0.43335056 -10.290886 -1.3250767 0.00035991907 -0.81380004
-1.1612674 -0.29013607 -0.606503 -0.66427344 -7.177983 -3.3493626 -7.3075843 -9.278339
00000000: 695b 5e3f cadb a040 9a9d c7c0 f9ab 38c1
00000010: 9373 f03e 1c05 dd3e 11d6 40c1 0b1c 843f
00000020: ae83 b5c0 3639 a8c0 a7f8 3e3f 661b d33e
00000030: e9fb 05c1 fc31 05c1 dd1c a6c0 e118 05c1
00000040: ddf3 9dc0 00bb 34c1 27e8 bfc0 f788 523f
00000050: ef80 52c0 a353 35c0 0af9 d0c0 e395 d5c0
00000060: b520 d9c0 b64c e5c0 f040 bfc0 19f1 05c1
00000070: ed2b c5c0 c69f 0ac1 13c8 f3c0 3358 aec0
00000080: 9a7e aac0 bf8f 84be 2dcf 80c0 2fbc 0fc0
00000090: 2187 1fc0 74d4 21c1 b7b4 b0c0 e2a2 59c0
000000a0: 9a81 c8c0 cbcb 17c0 eead c2c0 1dcd 1d3f
000000b0: b3a3 9d3e b705 05c0 c965 dbc0 e8ce 28c0
000000c0: 3b6e 543f 6688 0dc1 e336 23bf fe97 75bf
000000d0: 1ef0 b8c0 ac55 a0c0 0dc9 60be db28 dac0
000000e0: 41e4 16c1 f177 e0c0 0ffc 883f 2445 6dbf
000000f0: e356 593f dae6 c53e 97fe a0c0 520f 20c1
00000100: faea 6ac1 b8b0 f9be d200 5dc0 20e0 dd3e
00000110: 78a7 24c1 1d9c a9bf 85b3 bc39 3355 50bf
00000120: 69a4 94bf b78c 94be c843 1bbf d30d 2abf
00000130: 09b2 e5c0 f55b 56c0 bbd7 e9c0 1474 14c1
